// E2E tests for arg_compare with GPU VectorDistribute pipeline
// These tests specifically target the ballot-optimized reduction path

// Test 1: Basic argmax with power-of-2 size (matches subgroup size)
func.func @arg_compare_64_elements_max() {
  // 64 elements - fits exactly in a typical AMD subgroup
  %input_values = util.unfoldable_constant dense<[
    … > : tensor<64xf32>

  %out_value_empty = tensor.empty() : tensor<f32>
  %out_index_empty = tensor.empty() : tensor<i32>

  %neg_inf = arith.constant 0xFF800000 : f32
  %c0 = arith.constant 0 : i32
  %out_value = linalg.fill ins(%neg_inf : f32) outs(%out_value_empty : tensor<f32>) -> tensor<f32>
  %out_index = linalg.fill ins(%c0 : i32) outs(%out_index_empty : tensor<i32>) -> tensor<i32>

  %0:2 = iree_linalg_ext.arg_compare
    dimension(0)
    ins(%input_values : tensor<64xf32>)
    outs(%out_value, %out_index : tensor<f32>, tensor<i32>) {
    ^bb0(%a: f32, %b: f32):
      %cmp = arith.cmpf ogt, %a, %b : f32
      iree_linalg_ext.yield %cmp : i1
  } -> tensor<f32>, tensor<i32>

  check.expect_almost_eq_const(
    %0#0,
    dense<64.0> : tensor<f32>
  ) : tensor<f32>

  check.expect_eq_const(
    %0#1,
    dense<63> : tensor<i32>
  ) : tensor<i32>

  return
}

// Test 2: Argmax with tie-breaking (tests ballot finds lowest thread ID)
func.func @arg_compare_ties_prefer_smallest_index() {
  // Multiple occurrences of max value - should select first one
  %input_values = util.unfoldable_constant dense<[
    … > : tensor<16xf32>

  %out_value_empty = tensor.empty() : tensor<f32>
  %out_index_empty = tensor.empty() : tensor<i32>

  %neg_inf = arith.constant 0xFF800000 : f32
  %c0 = arith.constant 0 : i32
  %out_value = linalg.fill ins(%neg_inf : f32) outs(%out_value_empty : tensor<f32>) -> tensor<f32>
  %out_index = linalg.fill ins(%c0 : i32) outs(%out_index_empty : tensor<i32>) -> tensor<i32>

  %0:2 = iree_linalg_ext.arg_compare
    dimension(0)
    ins(%input_values : tensor<16xf32>)
    outs(%out_value, %out_index : tensor<f32>, tensor<i32>) {
    ^bb0(%a: f32, %b: f32):
      %cmp = arith.cmpf ogt, %a, %b : f32
      iree_linalg_ext.yield %cmp : i1
  } -> tensor<f32>, tensor<i32>

  check.expect_almost_eq_const(
    %0#0,
    dense<13.0> : tensor<f32>
  ) : tensor<f32>

  // Should return 15 (the last 13.0), demonstrating ballot's cttz behavior
  check.expect_eq_const(
    %0#1,
    dense<15> : tensor<i32>
  ) : tensor<i32>

  return
}

// Test 3: Argmin test
func.func @arg_compare_128_elements_min() {
  // 128 elements - tests cross-subgroup reduction
  %input_values = util.unfoldable_constant dense<[
    … > : tensor<128xf32>

  %out_value_empty = tensor.empty() : tensor<f32>
  %out_index_empty = tensor.empty() : tensor<i32>

  %pos_inf = arith.constant 0x7F800000 : f32
  %c0 = arith.constant 0 : i32
  %out_value = linalg.fill ins(%pos_inf : f32) outs(%out_value_empty : tensor<f32>) -> tensor<f32>
  %out_index = linalg.fill ins(%c0 : i32) outs(%out_index_empty : tensor<i32>) -> tensor<i32>

  %0:2 = iree_linalg_ext.arg_compare
    dimension(0)
    ins(%input_values : tensor<128xf32>)
    outs(%out_value, %out_index : tensor<f32>, tensor<i32>) {
    ^bb0(%a: f32, %b: f32):
      %cmp = arith.cmpf olt, %a, %b : f32
      iree_linalg_ext.yield %cmp : i1
  } -> tensor<f32>, tensor<i32>

  check.expect_almost_eq_const(
    %0#0,
    dense<1.0> : tensor<f32>
  ) : tensor<f32>

  check.expect_eq_const(
    %0#1,
    dense<127> : tensor<i32>
  ) : tensor<i32>

  return
}

// Test 4: 2D reduction on last dimension (tests parallel reductions)
func.func @arg_compare_2d_batch_max() {
  // 4 batches x 32 elements each
  // Each batch should find its own max independently
  %input_values = util.unfoldable_constant dense<[
    [… > : tensor<4x32xf32>

  %out_value_empty = tensor.empty() : tensor<4xf32>
  %out_index_empty = tensor.empty() : tensor<4xi32>

  %neg_inf = arith.constant 0xFF800000 : f32
  %c0 = arith.constant 0 : i32
  %out_value = linalg.fill ins(%neg_inf : f32) outs(%out_value_empty : tensor<4xf32>) -> tensor<4xf32>
  %out_index = linalg.fill ins(%c0 : i32) outs(%out_index_empty : tensor<4xi32>) -> tensor<4xi32>

  %0:2 = iree_linalg_ext.arg_compare
    dimension(1)
    ins(%input_values : tensor<4x32xf32>)
    outs(%out_value, %out_index : tensor<4xf32>, tensor<4xi32>) {
    ^bb0(%a: f32, %b: f32):
      %cmp = arith.cmpf ogt, %a, %b : f32
      iree_linalg_ext.yield %cmp : i1
  } -> tensor<4xf32>, tensor<4xi32>

  check.expect_almost_eq_const(
    %0#0,
    dense<[32.0, 32.0, 32.0, 32.0]> : tensor<4xf32>
  ) : tensor<4xf32>

  check.expect_eq_const(
    %0#1,
    dense<[31, 0, 31, 8]> : tensor<4xi32>
  ) : tensor<4xi32>

  return
}

// Test 5: FP16 test (tests different element types)
func.func @arg_compare_fp16_max() {
  %input_values = util.unfoldable_constant dense<[
    … > : tensor<16xf16>

  %out_value_empty = tensor.empty() : tensor<f16>
  %out_index_empty = tensor.empty() : tensor<i32>

  %neg_inf = arith.constant 0xFC00 : f16  // -inf in fp16
  %c0 = arith.constant 0 : i32
  %out_value = linalg.fill ins(%neg_inf : f16) outs(%out_value_empty : tensor<f16>) -> tensor<f16>
  %out_index = linalg.fill ins(%c0 : i32) outs(%out_index_empty : tensor<i32>) -> tensor<i32>

  %0:2 = iree_linalg_ext.arg_compare
    dimension(0)
    ins(%input_values : tensor<16xf16>)
    outs(%out_value, %out_index : tensor<f16>, tensor<i32>) {
    ^bb0(%a: f16, %b: f16):
      %cmp = arith.cmpf ogt, %a, %b : f16
      iree_linalg_ext.yield %cmp : i1
  } -> tensor<f16>, tensor<i32>

  check.expect_almost_eq_const(
    %0#0,
    dense<16.0> : tensor<f16>
  ) : tensor<f16>

  check.expect_eq_const(
    %0#1,
    dense<15> : tensor<i32>
  ) : tensor<i32>

  return
}
